lab1/model_24_48_b32.pt (torch, 15512 bytes, 6 tensors)

weight f4 [48, 33]
000000 02 d5 35 bf d3 8d 7a be dc 7e 79 bf 9f 5e bb bd
       -0.7102815 -0.24468164 -0.974592 -0.09148907
000010 40 db c4 be c4 de 29 be b0 f1 63 bf e7 b1 a5 bf
       -0.38448524 -0.16588885 -0.8904066 -1.2944916
000020 91 8a ca 3e d6 fc 03 bf 10 62 d9 be ae 0a 7c 3e
       0.39558843 -0.5155767 -0.42457628 0.24613449
000030 f9 a4 07 3f ab 30 8c 3f 88 49 bb 3e de fc 07 bd
       0.52986103 1.0952352 0.36579537 -0.033200137
000040 20 27 8b 3d fb 1c f1 3d f6 34 03 3d 37 65 53 3e
       0.06794572 0.11773106 0.03203293 0.20644079
000050 ee b7 6a be 19 dc 53 3e fc 0b ee 3f cb 35 ac bf
       -0.22921726 0.2068943 1.8597407 -1.3453916
000060 29 c2 79 3f 8f c1 98 bf e7 87 6f bf b9 c3 bc 3f
       0.9756189 -1.1934069 -0.93566746 1.474723
000070 2f 29 03 3e 9f bf b2 be 4c 5d 62 bf 1a 18 19 3f
       0.12808679 -0.3491182 -0.8842361 0.598024
000080 4d 72 ad bf 5e cd 44 3f d9 d7 75 3e 68 f1 4f bd
       -1.3550507 0.76875865 0.2400812 -0.050767332
000090 6d 78 00 3f 57 ef 61 be 60 bd 8e 3e 47 f8 57 3f
       0.50183755 -0.22063957 0.27878857 0.84363216
0000a0 d2 53 30 3f c0 56 5d bd 4b 39 3a be d7 cb a4 3d
       0.688779 -0.05403781 -0.18185918 0.08046692
0000b0 f7 87 5b bf 4c 0c df 3e fc 68 ec be 85 23 0a 3e
       -0.8575434 0.4356407 -0.46173847 0.13490112
0000c0 82 7e 07 bf 64 b0 69 3e 02 b9 69 be d4 1e 21 3f
       -0.5292741 0.22821194 -0.22824481 0.62937665
0000d0 dd 2f 94 be b2 b2 c9 3d 5b 57 e3 3e 82 5f 26 3f
       -0.28942767 0.098485366 0.44402584 0.64989483
0000e0 78 f8 8c bf 3e 18 a7 3e 04 8a 4c 3f d4 4a 04 bf
       -1.1013327 0.32635683 0.79898095 -0.5167668
0000f0 4b 9e 5d 3f 3e 9b f2 3e dd 43 37 bf ea 48 26 bf
       0.8656966 0.47384065 -0.71587926 -0.6495501
000100 90 0f 22 bf c9 af 07 bf c3 08 29 bf c3 b4 b3 bf
       -0.63304996 -0.530026 -0.66028994 -1.4039539
000110 97 59 71 3f 2d 33 b8 bd a8 c0 45 bd 04 cb e9 3e
       0.9427733 -0.08994136 -0.048279434 0.456627
000120 21 95 8e bc 6e f7 38 bf 7f 5e ae bd 59 ab 93 3e
       -0.017405095 -0.7225255 -0.085141174 0.28841665
000130 0d 0c 09 bf 0a a3 97 be 06 6c 62 bf 43 63 3f bf
       -0.53534013 -0.29616576 -0.8844608 -0.74760836
000140 1a f4 39 3f 71 e9 be be 3a e9 14 bf 72 82 0b 3f
       0.72638094 -0.37287477 -0.58168375 0.5449592
000150 fb c2 0d ba 9f 04 04 3f d7 5b 89 3d 9a db f4 be
       -0.00054077775 0.5156955 0.0670697 -0.47823793
000160 a7 bb 41 be eb fb d6 3f 85 11 17 bf 3e 1f 50 bf
       -0.1891924 1.6795629 -0.5901111 -0.8129767
000170 9e fb b0 bd 6d be 09 be af a3 54 3f 72 11 10 3f
       -0.08641742 -0.13451548 0.8306226 0.5627662
000180 a4 a0 c3 be c9 64 18 3c 10 b2 37 3f 8e 89 45 be
       -0.38208497 0.009301373 0.71756077 -0.19290754
000190 6b b4 9f 3f 24 d5 93 3e c9 d9 74 be b6 10 cd be
       1.2476934 0.2887355 -0.23911203 -0.40051812
0001a0 44 d5 da 3e 82 59 af be 49 37 66 bf 73 36 06 bd
       0.42740834 -0.34247977 -0.8992811 -0.03276677
0001b0 8b 8a 78 3e 50 78 5a bf bc 27 50 3f c7 0d 6c be
       0.242716 -0.8533983 0.8131063 -0.2305213
0001c0 a8 64 87 be c7 76 31 3f 0d c4 55 3d 2e bd 5c be
       -0.26443982 0.69321865 0.05218892 -0.21556541
0001d0 4d a4 b8 3d 77 59 a8 bb f5 e7 1d 3f 7b ea 59 bf
       0.09015713 -0.005137618 0.61682063 -0.85123414
0001e0 ef 7b 54 3d 6f ce 0c 3f f8 fe a5 3e f6 ae ed be
       0.051876005 0.5500249 0.32421088 -0.46422547
0001f0 31 54 49 3f 05 d3 73 3f fb 95 46 3f 22 07 7e bf
       0.7864409 0.95243865 0.775726 -0.99229634
000200 11 59 ea 3d 71 24 3e bf ee 7d 3e bf 3d e6 0a 3f
       0.11442769 -0.74274355 -0.74410903 0.54257566
000210 9a a2 e3 bd ad 9b ce be cd f8 96 bd a0 75 ba be
       -0.11114998 -0.40353146 -0.07371674 -0.36417866
000220 b7 a1 6d bf f1 37 80 be 63 13 57 bf 09 0b ac 3e
       -0.9282488 -0.2504268 -0.84013957 0.3360217
000230 37 03 4e bf 2d c5 18 bf d5 f1 12 be 93 bf 9f be
       -0.80473655 -0.59675866 -0.14350064 -0.31200847
000240 bb 0d 55 bd 93 6b 2c bf b1 b0 d8 be f6 30 a1 3c
       -0.052015048 -0.67351645 -0.42322305 0.019676667
000250 17 97 00 3f b3 98 7d bf da 67 bc be b5 1d 09 bf
       0.50230545 -0.99061126 -0.36797982 -0.53560954
000260 19 6b 35 3e 3e dd 2b 3f cb 1a 4a be a1 d2 84 3e
       0.17716636 0.67134464 -0.19736783 0.25941947
000270 f3 68 3a be ad 86 98 3e 1c 95 4e 3d 56 28 e7 3e
       -0.18204097 0.2979025 0.05043517 0.4514796
000280 10 ca e1 3d 46 dd 0a bd 52 d3 80 3f 4b 09 88 bf
       0.110248685 -0.03390243 1.006449 -1.0627836
000290 57 7b 41 bd 6e 09 a0 bd 72 44 d1 3e b4 37 2c 3f
       -0.047236767 -0.078142986 0.40872532 0.67272496
0002a0 a1 32 a4 be d8 9a 90 be 10 3a f5 bd 24 54 44 3f
       -0.32069877 -0.28243136 -0.11973965 0.7669089
0002b0 9e e7 3d bf f2 f7 b6 bf 8d c7 53 bf 90 b1 d9 be
       -0.74181545 -1.4294417 -0.82726365 -0.42518282
0002c0 3a e3 0e 3e 43 52 56 3e 54 24 68 3d ac c2 db be
       0.13953868 0.20929818 0.05667527 -0.4292196
0002d0 d9 60 05 3f 2e 99 ad be da 86 d2 3d 9f a7 c6 be
       0.521009 -0.3390593 0.10279627 -0.3879976
0002e0 68 db 3b 3f b7 1b 1b 3f bd c8 ca be 2d 59 67 be
       0.7338166 0.60589164 -0.39606276 -0.22592612
0002f0 3b 68 a3 be 71 09 48 bf a4 91 2a 3e 0c 69 04 bf
       -0.3191546 -0.78139406 0.1665712 -0.5172279
000300 b5 31 ca be dc 1b 03 3f a8 31 8e 3e 90 62 16 3f
       -0.39491048 0.51214385 0.2777226 0.58744144
000310 41 9d 4b bf ae d6 88 3f 17 92 59 3f be 7a bf be
       -0.79536825 1.0690515 0.8498854 -0.37398332
000320 87 94 58 3f d3 1e 2d bf 76 53 9b bf c9 1e f5 3e
       0.84601635 -0.6762516 -1.2134845 0.4787505
000330 17 43 d8 be 4c 95 3d 3f 84 c8 bc 3f a3 28 e1 3d
       -0.42238685 0.74055934 1.4748693 0.10994079
000340 39 9c 49 bd 0b a7 cf be 87 fd c9 3c e2 8b 06 be
       -0.04922125 -0.4055713 0.024657024 -0.13139299
000350 1c 48 cc 3d ae b5 22 3f 44 c6 28 3e 92 fd e7 bd
       0.09974691 0.6355847 0.16481882 -0.113276616
000360 c6 78 9a 3f 71 03 e4 be ac 8e a4 3d e6 b1 8d bf
       1.2068107 -0.44533876 0.08035025 -1.1069915
000370 f8 8f e0 bf df 48 81 be a4 f4 7e 3f ee 27 96 bf
       -1.7543936 -0.2525091 0.9959204 -1.1730936
000380 07 5b bc 3f 8a a5 e9 3e e3 70 f4 3e b8 c9 8b bf
       1.4715279 0.4563411 0.47742376 -1.0920935
000390 82 a0 c0 3e 7d 95 ac 3d b0 c0 55 bd 66 81 e4 3d
       0.37622458 0.0842695 -0.052185714 0.11157493
0003a0 b0 e8 68 3e 55 d2 3e 3f df 45 42 be 20 72 76 bf
       0.22745013 0.7453969 -0.18971966 -0.9626789
0003b0 6b a3 bf be 1b 27 34 3f 1f 56 b7 be 23 46 f5 bc
       -0.37429366 0.7037217 -0.35807893 -0.02994067
0003c0 46 8a 03 3f 8c 00 e2 bf 08 bc b9 be bb 24 4d 3f
       0.51382864 -1.7656417 -0.3627627 0.8013417
0003d0 ff a7 58 bf 78 4a a2 3f d7 8f 5e 3f 4b 3c 9d 3e
       -0.8463134 1.2678976 0.8693823 0.30710062
0003e0 ce 63 ef 3c 78 67 37 bf df c8 ed 3e bb 63 c0 3f
       0.029222395 -0.71642256 0.46442315 1.5030435
0003f0 72 93 7a bd 9c 30 46 bf ba 88 10 bf 97 6d 0b be
       -0.06117577 -0.7741792 -0.5645863 -0.13616024

bias f4 [48]
000000 a9 9e eb 3d f5 09 b3 3e a3 f8 84 bc 16 e6 f7 be
       0.115048714 0.34968534 -0.01623184 -0.4841773
000010 79 81 a7 be fc 97 bb 3d 72 57 24 3f 20 e6 ea 3e
       -0.32715967 0.09159848 0.6419593 0.45878696
000020 35 3e 83 be 15 f1 ee 3e 02 06 5e 3f 13 fb 55 be
       -0.25633398 0.46668306 0.8672792 -0.20896558
000030 cd 98 4d 3f 43 77 48 be 22 3f 1e 3f f1 01 4b 3f
       0.8031128 -0.19576745 0.61815083 0.7929984
000040 97 d3 85 3e 81 a0 35 3e 84 0d 04 40 3e eb f1 bc
       0.26137993 0.17737009 2.063325 -0.029531118
000050 08 c1 b1 be f8 09 ed be 38 ec 2b 3f 1b af b5 3e
       -0.34717584 -0.46296668 0.67157316 0.35485157
000060 56 69 db 3e bf ea 6c bf c3 5f e2 3e 43 fb 18 bf
       0.42853802 -0.92545694 0.44213685 -0.59758395
000070 52 6b 6c 3f 30 2d 8c 3e ae 63 b2 be c5 dd 72 3f
       0.9235126 0.27378225 -0.34841675 0.94869643
000080 c9 9c b0 3e fa 1c f9 3d 8c b2 a6 3e 67 68 42 3e
       0.34494618 0.1216373 0.32558095 0.18985139
000090 7b fc 0f bf cd 3b e2 3e 41 a3 4b 3f 46 6e f4 3e
       -0.5624463 0.4418625 0.7954598 0.47740382
0000a0 83 6a 33 3f 12 27 be be 76 95 0d 3e e2 69 b5 be
       0.700844 -0.37139183 0.13826546 -0.35432345
0000b0 5d 6b 98 3f 2e 78 aa 3e 45 03 00 bf dc fa 78 3f
       1.1907765 0.33294815 -0.5000499 0.9725778

weight f4 [24, 48]
000000 ef 6b 0e bf ee fd e8 3e d3 fb 81 3f f8 62 65 3f
       -0.55633444 0.45506233 1.0154976 0.8960414
000010 a8 1c 01 3f 54 ce 10 3f c6 fd 97 3e 2d 3a 20 3e
       0.5043435 0.5656483 0.296858 0.15647192
000020 eb 1f 0e bf 5b 9e 90 bd e0 f2 53 3e b1 fc b9 3e
       -0.5551745 -0.07061454 0.20698118 0.363256
000030 4d 83 aa be 39 c3 e1 bf bb 6e 00 bf 98 c1 bd 3c
       -0.333033 -1.7637702 -0.5016896 0.023163602
000040 a0 5c 43 be 7a c7 10 bf 80 d7 4f 3f 3d 08 87 3e
       -0.19078302 -0.5655438 0.811882 0.26373473
000050 fa 3b fd bf e2 10 ca 3e f6 0f d6 3d 42 6b 12 3f
       -1.9783928 0.39466006 0.10452263 0.5719491
000060 55 ed 10 be 57 10 5a 3f 2d 24 34 bf 41 ac 6c 3f
       -0.14153035 0.8518118 -0.703677 0.9245034
000070 4d a3 2e 3f 29 03 e9 bd f8 41 c7 3e e8 5a 7e 3f
       0.6821793 -0.11377556 0.38917518 0.9935746
000080 c4 2d e9 3e 49 48 24 bf 92 5e 09 be ef bc 28 3f
       0.4554273 -0.641728 -0.13414982 0.6591329
000090 23 ff 8e 3f 1d 7f 0b bd 55 34 ed 3e 6b 68 f3 bc
       1.1171612 -0.03405677 0.4632899 -0.029712876
0000a0 65 e3 04 3f b4 97 00 40 ad cb e3 bf 3c 76 38 3f
       0.51909477 2.0092592 -1.7796532 0.7205541
0000b0 1d 1b 55 3e c6 3c 1b bf 87 e4 14 3f ef 07 00 3f
       0.20811124 -0.6063961 0.58161205 0.50012106
0000c0 29 01 93 3f 5f 82 6d 3f bd da a1 3f f9 21 86 3f
       1.1484729 0.92777056 1.2644879 1.0479118
0000d0 e1 98 a3 3f b7 2b 71 3f ce ec 9a 3f 8f 1a b6 3f
       1.278103 0.9420733 1.2103517 1.4226855
0000e0 63 dc 00 be 33 9f 96 3f 5c 2f 1e 3f f3 cd 6d 3f
       -0.12584071 1.1767334 0.61791015 0.9289238
0000f0 08 f1 76 3f 78 7e 08 bf 72 0d 47 bd 1f 23 28 3e
       0.96461535 -0.53317976 -0.048596807 0.16419648
000100 29 b1 50 3f ea f0 60 bf 40 67 dc 3f 6f 99 73 3f
       0.81520325 -0.87867606 1.7219009 0.95155996
000110 54 6f e0 be 28 d3 2c 3f 55 80 8f 3e 4f 97 87 3f
       -0.43834937 0.675097 0.28027597 1.0593051
000120 fc 1a 23 3f ce d8 13 3f 99 3d 4b 3e 82 46 8b 3f
       0.6371305 0.5775269 0.19847716 1.0880892
000130 1b 71 92 3f fd 97 95 3f dd e6 44 3f e5 b2 f9 3f
       1.1440767 1.1687008 0.7691477 1.9507719
000140 fd 10 81 3f db f3 81 bd e8 6f 35 3f b9 ff 2c 3f
       1.008331 -0.0634534 0.7087388 0.675777
000150 b6 42 78 3f 27 e3 b8 be f5 51 d2 3f de 86 b5 3f
       0.9697679 -0.36110803 1.6431261 1.4181783
000160 e6 1a cc 3f f4 34 d8 3f bc 38 93 be 83 e2 72 3f
       1.5945709 1.689116 -0.28754222 0.9487688
000170 e2 8c d2 3f 87 46 de 3e 88 80 84 3f 24 54 9f 3f
       1.6449244 0.43413183 1.0351725 1.2447553
000180 98 2d d9 bd cd a4 2e bc 84 24 60 3e 2e d5 ab 3f
       -0.106043994 -0.010659409 0.2188893 1.3424432
000190 f5 6c 26 bc ff e7 0e 3d 16 3f 10 3e 3b 0b b0 bc
       -0.010157813 0.034889217 0.14086565 -0.02148973
0001a0 c7 3f 45 be f0 99 e7 bf e1 5b 37 bf 24 9e 9c 3f
       -0.1926261 -1.8093853 -0.7162457 1.2235761
0001b0 98 e3 16 3e c4 e9 08 bf 81 c2 88 3e a9 6b 14 3f
       0.14735258 -0.534817 0.26710895 0.57976776
0001c0 1c a2 19 bf 7d 62 ac 3e 81 6a d8 3c 53 29 49 3f
       -0.60012984 0.3366889 0.026417973 0.7857868
0001d0 c0 9a 41 3f af ff 3f 3f 18 5a a1 be cb b0 02 3f
       0.75626755 0.7499952 -0.3151405 0.51051015
0001e0 a6 79 9c 3e a9 36 21 3f 22 06 df be c6 6e 91 3f
       0.3056156 0.6297403 -0.43559366 1.136193
0001f0 79 7b 30 3f 7c 41 35 bf 39 49 e9 3d e3 4d ec 3d
       0.68938404 -0.70803046 0.11390919 0.11538293
000200 a9 b4 14 3f 50 9f d3 bf c1 db c1 bf 33 61 9a be
       0.58088166 -1.6532993 -1.5145189 -0.30152282
000210 05 ac aa 3e 89 f7 71 3d df ff 95 3d 52 84 0a bf
       0.33334365 0.05907396 0.07324194 -0.54108155
000220 d3 64 b8 3e ca f3 02 40 d9 2e 47 bf f8 67 0e 3e
       0.36014423 2.0461297 -0.7780586 0.13906848
000230 19 c3 e1 be 44 f5 61 bf b3 3c 6d bd bb cb ba 3e
       -0.4409416 -0.8826487 -0.057919215 0.3648356
000240 25 2b 4e 3f 27 24 c8 be e3 c9 10 bf 64 77 11 bf
       0.80534583 -0.39090082 -0.56558055 -0.568228
000250 fb f1 04 bf aa f9 f5 bf 3a 9f 42 bf 79 32 db bf
       -0.5193173 -1.9216816 -0.7602421 -1.7124778
000260 43 41 d9 3d c4 9d 81 3f 69 2b 95 3f a1 48 1a be
       0.10608151 1.0126271 1.1653873 -0.15066768
000270 b5 6d ee 3e 86 e5 56 be d3 74 f0 3d bc 86 13 3f
       0.46568075 -0.20985994 0.117410325 0.57627463
000280 aa 44 de be c6 0c 5f 3d fa ae 7e 3f 5c bb f9 3e
       -0.43411762 0.05445554 0.99485743 0.48775756
000290 58 d2 af 3e 67 3b 1d bf 63 66 2f bf 2d 0a 78 be
       0.34340167 -0.61418766 -0.68515605 -0.24222632
0002a0 02 fc df 3e da d9 86 bf 6a cf f2 3e 0b 44 81 be
       0.43746954 -1.0535233 0.4742387 -0.25247225
0002b0 dd f0 25 3f eb 73 23 3f 2b 32 38 bf 14 02 af be
       0.64820653 0.6384875 -0.7195155 -0.34181273
0002c0 af 43 83 bf c6 4f 58 3f ff 0c f6 3e d5 4d ad 3e
       -1.025503 0.84496725 0.4805679 0.33848444
0002d0 7f ca 35 bf bf fe 9d 3e d6 c3 6e 3f 19 6a b1 be
       -0.7101211 0.30858418 0.9326757 -0.3465126
0002e0 aa 80 2e 3f b8 16 84 be 9b 3f c3 3f 4a fe 10 bf
       0.68165076 -0.25798583 1.5253786 -0.56638014
0002f0 41 45 d4 3e 80 19 cb 3e 91 cb c4 be 4f c1 3d 3f
       0.41459087 0.39667892 -0.3843656 0.7412309
000300 09 c7 25 be 46 f1 6f bf 90 33 8c 3f 63 36 78 be
       -0.16189207 -0.9372753 1.0953236 -0.24239497
000310 bb 2e d3 be 7f 9c 1f c0 47 41 8a 3f 51 bf 0d bd
       -0.4124659 -2.4939268 1.0801171 -0.03460628
000320 9b 4f 0e be 3e 90 02 bd 29 e6 35 3e aa de da bf
       -0.13897555 -0.03187584 0.1776358 -1.7099202
000330 9d 56 8b 3e 22 0e 23 3e ce d7 e9 be 47 f4 89 be
       0.27214518 0.1592336 -0.45672458 -0.2694418
000340 e2 51 a3 3f d3 00 67 3e 4c 1e 85 bf 37 49 15 3f
       1.2759364 0.22558908 -1.0399871 0.5831484
000350 79 26 e7 bf 13 23 9c be e2 a4 57 3f 9c 6f 20 bf
       -1.8058616 -0.3049551 0.84235966 -0.626703
000360 e0 12 35 3f 82 79 d5 3e 87 d7 07 bf 86 ee 65 3f
       0.70731926 0.41694266 -0.53063244 0.8981708
000370 7d c7 b9 3e 14 68 db 3e df 88 08 c0 c5 07 ec bf
       0.3628501 0.42852843 -2.133354 -1.8439871
000380 f3 ea 25 be d2 36 73 3f 22 b0 11 bf fc 84 2d 3e
       -0.16202907 0.95005524 -0.5690938 0.16945261
000390 5f 2c f7 be 3d 22 0a 3f d3 12 36 bf 7a f6 23 be
       -0.4827604 0.53958493 -0.71122473 -0.16011992
0003a0 61 b4 4b be c5 30 cd be 05 a0 05 bf 74 34 72 bd
       -0.19893028 -0.4007627 -0.52197295 -0.059132054
0003b0 3d 08 7f 3f 89 cb ca 3e b3 b8 54 3f f4 ee f8 be
       0.99621946 0.3960841 0.8309433 -0.48619807
0003c0 0a 11 e8 be 08 d2 de 3e 70 b3 f6 3d 56 03 bb 3f
       -0.453255 0.43519616 0.12045944 1.4610393
0003d0 5b 45 91 3e 1b 6a 2d 3f 3c cd 93 3d 37 7e 1d 3f
       0.28373227 0.6774003 0.0721688 0.61520714
0003e0 ac 22 83 bf 39 ec e7 3e fa 53 a0 be b6 2d fb 3e
       -1.0244956 0.4529741 -0.3131407 0.49058312
0003f0 08 1c 92 bf 27 66 17 bf 24 6b 99 bf 95 4a fc be
       -1.1414804 -0.5914025 -1.1985822 -0.49275652

bias f4 [24]
000000 99 2c fb 3d c3 68 6b 3f 26 cc 1b be de 26 44 3f
       0.12264366 0.9195673 -0.15214595 0.76621807
000010 ba d1 18 3e fb 0d 1d be 78 60 1c 3e 4a 9e ba 3e
       0.14923754 -0.15337364 0.15271175 0.3644889
000020 89 9a cf 3e 58 4c 3e bd 96 0d 3e 3e ae 47 87 be
       0.40547588 -0.046459526 0.1855987 -0.26421875
000030 ba 5c 91 3e e7 99 22 3f b1 44 b2 3f 19 93 36 3e
       0.28391057 0.63516086 1.3927213 0.17829551
000040 a7 d4 c9 3d 4e 7e cd 3e 15 69 7b bb 72 b7 d7 bd
       0.09855013 0.40135425 -0.0038362194 -0.10533036
000050 83 30 2b be 0e 0a 57 3e bb 32 43 3f 4f d9 f4 3f
       -0.16717725 0.2099993 0.76249284 1.9128817

weight f4 [2, 24]
000000 39 16 5d c0 00 c9 87 c0 bc 04 32 c0 56 8a a3 3e
       -3.4544814 -4.243286 -2.781539 0.3194148
000010 89 49 81 40 e4 d4 5f c0 a9 a1 1f 3f 25 dc 49 c0
       4.0402265 -3.4973688 0.6235605 -3.1540616
000020 6b 5e fb bc 28 68 43 c0 f4 d5 87 3f 54 08 4c 40
       -0.03068467 -3.0532322 1.0612168 3.1880083
000030 72 b9 76 c0 29 f0 57 c0 2d 4c a7 bf f9 4c 45 c0
       -3.8550687 -3.3740332 -1.3070122 -3.082823
000040 fd 81 93 c0 52 a0 8e c0 dc 28 48 c0 c5 ed 2e c0
       -4.6096177 -4.4570704 -3.1274939 -2.7332623
000050 ab dd 68 c0 9e 6d 0c bd be 60 95 3f e3 52 13 c0
       -3.6385295 -0.034284227 1.1670148 -2.301934
000060 e9 42 ed bd f5 f2 e3 bf 14 04 f3 3e b4 f0 7a c0
       -0.11585028 -1.780852 0.4746405 -3.9209414
000070 a0 96 95 c0 89 80 44 3f 60 59 60 c0 9b d1 7b bf
       -4.674637 0.7675863 -3.505455 -0.9836671
000080 39 c5 3a c0 1e a5 dc 3f 21 ec 51 c0 0c 73 8f c0
       -2.9182875 1.723789 -3.2800372 -4.482794
000090 33 3c 1c 40 c7 e0 98 bf f5 d1 80 c0 ae fd 64 bf
       2.4411743 -1.1943597 -4.0256295 -0.89449584
0000a0 3c 5f 3e 40 da 06 2a 40 f2 9b 07 40 54 05 86 3f
       2.9745626 2.6566682 2.1188931 1.0470376
0000b0 e2 0e ea 3f 3f 0a 48 c0 db d0 85 c0 d7 48 8d c0
       1.8285792 -3.1256254 -4.181745 -4.4151416

bias f4 [2]
000000 ae 8e 6e bf 1d ae b1 bf
       -0.9318646 -1.388126
